models/mamba_v0.pth (torch, 19273 bytes, 9 tensors)

A_log f4 [32, 16]
000000 00 00 00 00 18 72 31 3f 54 9f 8c 3f 18 72 b1 3f
       0.0 0.6931472 1.0986123 1.3862944
000010 10 02 ce 3f 60 58 e5 3f 96 13 f9 3f 92 15 05 40
       1.609438 1.7917595 1.9459102 2.0794415
000020 54 9f 0c 40 8e 5d 13 40 1e 77 19 40 b6 08 1f 40
       2.1972246 2.3025851 2.3978953 2.4849067
000030 21 28 24 40 51 e6 28 40 b2 50 2d 40 18 72 31 40
       2.5649493 2.6390574 2.7080503 2.7725887
000040 00 00 00 00 18 72 31 3f 54 9f 8c 3f 18 72 b1 3f
       0.0 0.6931472 1.0986123 1.3862944
000050 10 02 ce 3f 60 58 e5 3f 96 13 f9 3f 92 15 05 40
       1.609438 1.7917595 1.9459102 2.0794415
000060 54 9f 0c 40 8e 5d 13 40 1e 77 19 40 b6 08 1f 40
       2.1972246 2.3025851 2.3978953 2.4849067
000070 21 28 24 40 51 e6 28 40 b2 50 2d 40 18 72 31 40
       2.5649493 2.6390574 2.7080503 2.7725887
000080 00 00 00 00 18 72 31 3f 54 9f 8c 3f 18 72 b1 3f
       0.0 0.6931472 1.0986123 1.3862944
000090 10 02 ce 3f 60 58 e5 3f 96 13 f9 3f 92 15 05 40
       1.609438 1.7917595 1.9459102 2.0794415
0000a0 54 9f 0c 40 8e 5d 13 40 1e 77 19 40 b6 08 1f 40
       2.1972246 2.3025851 2.3978953 2.4849067
0000b0 21 28 24 40 51 e6 28 40 b2 50 2d 40 18 72 31 40
       2.5649493 2.6390574 2.7080503 2.7725887
0000c0 00 00 00 00 18 72 31 3f 54 9f 8c 3f 18 72 b1 3f
       0.0 0.6931472 1.0986123 1.3862944
0000d0 10 02 ce 3f 60 58 e5 3f 96 13 f9 3f 92 15 05 40
       1.609438 1.7917595 1.9459102 2.0794415
0000e0 54 9f 0c 40 8e 5d 13 40 1e 77 19 40 b6 08 1f 40
       2.1972246 2.3025851 2.3978953 2.4849067
0000f0 21 28 24 40 51 e6 28 40 b2 50 2d 40 18 72 31 40
       2.5649493 2.6390574 2.7080503 2.7725887
000100 00 00 00 00 18 72 31 3f 54 9f 8c 3f 18 72 b1 3f
       0.0 0.6931472 1.0986123 1.3862944
000110 10 02 ce 3f 60 58 e5 3f 96 13 f9 3f 92 15 05 40
       1.609438 1.7917595 1.9459102 2.0794415
000120 54 9f 0c 40 8e 5d 13 40 1e 77 19 40 b6 08 1f 40
       2.1972246 2.3025851 2.3978953 2.4849067
000130 21 28 24 40 51 e6 28 40 b2 50 2d 40 18 72 31 40
       2.5649493 2.6390574 2.7080503 2.7725887
000140 00 00 00 00 18 72 31 3f 54 9f 8c 3f 18 72 b1 3f
       0.0 0.6931472 1.0986123 1.3862944
000150 10 02 ce 3f 60 58 e5 3f 96 13 f9 3f 92 15 05 40
       1.609438 1.7917595 1.9459102 2.0794415
000160 54 9f 0c 40 8e 5d 13 40 1e 77 19 40 b6 08 1f 40
       2.1972246 2.3025851 2.3978953 2.4849067
000170 21 28 24 40 51 e6 28 40 b2 50 2d 40 18 72 31 40
       2.5649493 2.6390574 2.7080503 2.7725887
000180 00 00 00 00 18 72 31 3f 54 9f 8c 3f 18 72 b1 3f
       0.0 0.6931472 1.0986123 1.3862944
000190 10 02 ce 3f 60 58 e5 3f 96 13 f9 3f 92 15 05 40
       1.609438 1.7917595 1.9459102 2.0794415
0001a0 54 9f 0c 40 8e 5d 13 40 1e 77 19 40 b6 08 1f 40
       2.1972246 2.3025851 2.3978953 2.4849067
0001b0 21 28 24 40 51 e6 28 40 b2 50 2d 40 18 72 31 40
       2.5649493 2.6390574 2.7080503 2.7725887
0001c0 00 00 00 00 18 72 31 3f 54 9f 8c 3f 18 72 b1 3f
       0.0 0.6931472 1.0986123 1.3862944
0001d0 10 02 ce 3f 60 58 e5 3f 96 13 f9 3f 92 15 05 40
       1.609438 1.7917595 1.9459102 2.0794415
0001e0 54 9f 0c 40 8e 5d 13 40 1e 77 19 40 b6 08 1f 40
       2.1972246 2.3025851 2.3978953 2.4849067
0001f0 21 28 24 40 51 e6 28 40 b2 50 2d 40 18 72 31 40
       2.5649493 2.6390574 2.7080503 2.7725887
000200 00 00 00 00 18 72 31 3f 54 9f 8c 3f 18 72 b1 3f
       0.0 0.6931472 1.0986123 1.3862944
000210 10 02 ce 3f 60 58 e5 3f 96 13 f9 3f 92 15 05 40
       1.609438 1.7917595 1.9459102 2.0794415
000220 54 9f 0c 40 8e 5d 13 40 1e 77 19 40 b6 08 1f 40
       2.1972246 2.3025851 2.3978953 2.4849067
000230 21 28 24 40 51 e6 28 40 b2 50 2d 40 18 72 31 40
       2.5649493 2.6390574 2.7080503 2.7725887
000240 00 00 00 00 18 72 31 3f 54 9f 8c 3f 18 72 b1 3f
       0.0 0.6931472 1.0986123 1.3862944
000250 10 02 ce 3f 60 58 e5 3f 96 13 f9 3f 92 15 05 40
       1.609438 1.7917595 1.9459102 2.0794415
000260 54 9f 0c 40 8e 5d 13 40 1e 77 19 40 b6 08 1f 40
       2.1972246 2.3025851 2.3978953 2.4849067
000270 21 28 24 40 51 e6 28 40 b2 50 2d 40 18 72 31 40
       2.5649493 2.6390574 2.7080503 2.7725887
000280 00 00 00 00 18 72 31 3f 54 9f 8c 3f 18 72 b1 3f
       0.0 0.6931472 1.0986123 1.3862944
000290 10 02 ce 3f 60 58 e5 3f 96 13 f9 3f 92 15 05 40
       1.609438 1.7917595 1.9459102 2.0794415
0002a0 54 9f 0c 40 8e 5d 13 40 1e 77 19 40 b6 08 1f 40
       2.1972246 2.3025851 2.3978953 2.4849067
0002b0 21 28 24 40 51 e6 28 40 b2 50 2d 40 18 72 31 40
       2.5649493 2.6390574 2.7080503 2.7725887
0002c0 00 00 00 00 18 72 31 3f 54 9f 8c 3f 18 72 b1 3f
       0.0 0.6931472 1.0986123 1.3862944
0002d0 10 02 ce 3f 60 58 e5 3f 96 13 f9 3f 92 15 05 40
       1.609438 1.7917595 1.9459102 2.0794415
0002e0 54 9f 0c 40 8e 5d 13 40 1e 77 19 40 b6 08 1f 40
       2.1972246 2.3025851 2.3978953 2.4849067
0002f0 21 28 24 40 51 e6 28 40 b2 50 2d 40 18 72 31 40
       2.5649493 2.6390574 2.7080503 2.7725887
000300 00 00 00 00 18 72 31 3f 54 9f 8c 3f 18 72 b1 3f
       0.0 0.6931472 1.0986123 1.3862944
000310 10 02 ce 3f 60 58 e5 3f 96 13 f9 3f 92 15 05 40
       1.609438 1.7917595 1.9459102 2.0794415
000320 54 9f 0c 40 8e 5d 13 40 1e 77 19 40 b6 08 1f 40
       2.1972246 2.3025851 2.3978953 2.4849067
000330 21 28 24 40 51 e6 28 40 b2 50 2d 40 18 72 31 40
       2.5649493 2.6390574 2.7080503 2.7725887
000340 00 00 00 00 18 72 31 3f 54 9f 8c 3f 18 72 b1 3f
       0.0 0.6931472 1.0986123 1.3862944
000350 10 02 ce 3f 60 58 e5 3f 96 13 f9 3f 92 15 05 40
       1.609438 1.7917595 1.9459102 2.0794415
000360 54 9f 0c 40 8e 5d 13 40 1e 77 19 40 b6 08 1f 40
       2.1972246 2.3025851 2.3978953 2.4849067
000370 21 28 24 40 51 e6 28 40 b2 50 2d 40 18 72 31 40
       2.5649493 2.6390574 2.7080503 2.7725887
000380 00 00 00 00 18 72 31 3f 54 9f 8c 3f 18 72 b1 3f
       0.0 0.6931472 1.0986123 1.3862944
000390 10 02 ce 3f 60 58 e5 3f 96 13 f9 3f 92 15 05 40
       1.609438 1.7917595 1.9459102 2.0794415
0003a0 54 9f 0c 40 8e 5d 13 40 1e 77 19 40 b6 08 1f 40
       2.1972246 2.3025851 2.3978953 2.4849067
0003b0 21 28 24 40 51 e6 28 40 b2 50 2d 40 18 72 31 40
       2.5649493 2.6390574 2.7080503 2.7725887
0003c0 00 00 00 00 18 72 31 3f 54 9f 8c 3f 18 72 b1 3f
       0.0 0.6931472 1.0986123 1.3862944
0003d0 10 02 ce 3f 60 58 e5 3f 96 13 f9 3f 92 15 05 40
       1.609438 1.7917595 1.9459102 2.0794415
0003e0 54 9f 0c 40 8e 5d 13 40 1e 77 19 40 b6 08 1f 40
       2.1972246 2.3025851 2.3978953 2.4849067
0003f0 21 28 24 40 51 e6 28 40 b2 50 2d 40 18 72 31 40
       2.5649493 2.6390574 2.7080503 2.7725887

D f4 [32]
000000 00 00 80 3f 00 00 80 3f 00 00 80 3f 00 00 80 3f
       1.0 1.0 1.0 1.0
000010 00 00 80 3f 00 00 80 3f 00 00 80 3f 00 00 80 3f
       1.0 1.0 1.0 1.0
000020 00 00 80 3f 00 00 80 3f 00 00 80 3f 00 00 80 3f
       1.0 1.0 1.0 1.0
000030 00 00 80 3f 00 00 80 3f 00 00 80 3f 00 00 80 3f
       1.0 1.0 1.0 1.0
000040 00 00 80 3f 00 00 80 3f 00 00 80 3f 00 00 80 3f
       1.0 1.0 1.0 1.0
000050 00 00 80 3f 00 00 80 3f 00 00 80 3f 00 00 80 3f
       1.0 1.0 1.0 1.0
000060 00 00 80 3f 00 00 80 3f 00 00 80 3f 00 00 80 3f
       1.0 1.0 1.0 1.0
000070 00 00 80 3f 00 00 80 3f 00 00 80 3f 00 00 80 3f
       1.0 1.0 1.0 1.0

weight f4 [64, 16]
000000 b4 37 35 3e d4 9d 64 be ae a4 33 be 80 39 1f 3e
       0.1769703 -0.22325832 -0.17543289 0.15549278
000010 78 f0 05 bd 20 23 87 bc ec 8e 70 3e 66 dd 5c 3e
       -0.032700032 -0.016496241 0.2349202 0.21568832
000020 b0 8c 95 3c 30 0a 10 3e 0c 5b 30 be 88 0a 9a 3d
       0.018255562 0.14066386 -0.17222232 0.0752154
000030 c4 bd 5c be 74 82 39 3e f4 38 01 be 00 63 57 bc
       -0.21556765 0.1811617 -0.12619382 -0.013146162
000040 68 3b 3d 3d 64 a5 1f 3e 60 e6 6c bd 68 5b df bd
       0.046199232 0.15590435 -0.05783689 -0.10906106
000050 12 59 4d be 64 ae 52 3e 2c 71 ef bd 86 4a 4a 3e
       -0.20053509 0.20574337 -0.11691508 0.19754991
000060 f0 ba d4 3d c0 ec 52 be a2 bd 0c be d8 36 88 3d
       0.10387218 -0.20598125 -0.13744214 0.066510856
000070 a0 1a 4d bc 44 93 12 be ea d0 0b 3e 78 c7 6c bd
       -0.012518555 -0.1431399 0.13653913 -0.057807416
000080 40 37 29 bc 72 e0 7f 3e 88 57 04 bd ec 1e c7 3d
       -0.010328114 0.24987963 -0.03231004 0.09722695
000090 50 7c b3 3d 60 2e 53 be 0c dc c3 3d c4 ae c1 bd
       0.08763945 -0.2062316 0.09563455 -0.09457162
0000a0 e2 e7 02 be 10 15 3d 3e 0e 0c 5d 3e 38 35 43 bd
       -0.12783769 0.18465066 0.2158663 -0.047658175
0000b0 c0 95 5d 3e 4a 54 09 3e 08 1f 61 3d 62 fb 4a 3e
       0.21639156 0.1341106 0.054961234 0.19822457
0000c0 9c 93 56 3e 3a 7c 03 3e 5e de 72 be c4 0b 4c be
       0.20954746 0.12840357 -0.23717639 -0.19926363
0000d0 36 89 6b 3e 3c c2 13 be 28 a2 38 3d c4 92 7f 3e
       0.2300156 -0.14429563 0.04507652 0.2495833
0000e0 66 02 79 3e 38 9b d1 bd 70 49 7a be 64 10 d9 bd
       0.24317321 -0.10234684 -0.24442077 -0.105988294
0000f0 ae cf 40 3e 40 23 83 bc e8 85 36 be 50 5f 38 3e
       0.18829224 -0.01600802 -0.17824519 0.18005109
000100 60 0b 75 bc 12 05 29 3e 4a 7a 4b 3e 3e c5 33 be
       -0.014956325 0.1650584 0.19870868 -0.1755571
000110 1c 41 a8 3d 88 9a 5e 3d 68 6c 29 3d d4 48 15 be
       0.08215544 0.05434659 0.04136315 -0.14578563
000120 10 d3 4e bd 68 12 15 3d 62 2d 28 be 58 41 21 3e
       -0.050494254 0.036394507 -0.16423562 0.15747583
000130 ae be 19 be 98 4c 4a 3e 9e cd 21 be 10 c6 f4 3d
       -0.15014145 0.1975578 -0.15801093 0.1195184
000140 20 9f 14 3e 38 7f df 3d 6c 38 ea 3d a0 30 39 3e
       0.14513826 0.10912937 0.11436543 0.18084955
000150 40 76 2e 3e c8 c0 38 be 74 37 a0 3d 04 53 b8 bd
       0.17037296 -0.1804229 0.07823077 -0.09000209
000160 ce 78 0f 3e cc 14 1f 3e 68 f6 5b 3e 10 ed 9b 3c
       0.14010927 0.15535277 0.21480715 0.019033939
000170 56 53 3d be 22 13 41 be 0a de 46 be 34 10 13 be
       -0.18488821 -0.18854955 -0.19420639 -0.1436165
000180 08 b0 37 bd a0 0d fe 3d 8e f1 40 be 60 b1 01 3e
       -0.04484561 0.124049425 -0.18842146 0.1266532
000190 b2 cb 57 3e b6 e1 03 be 3a e9 1a be 78 56 a0 bd
       0.21073797 -0.1287907 -0.15128031 -0.078289926
0001a0 74 7d 57 3e 24 0d ef bd c8 1a 60 bd 7c 7f 04 be
       0.2104395 -0.11672428 -0.05471304 -0.12939256
0001b0 b0 36 ca 3d 1e a9 6b 3e 20 a7 e0 bd e6 33 02 3e
       0.09873712 0.23013732 -0.109693766 0.1271511
0001c0 bc f9 d0 bd 8e 32 52 3e 80 b9 5f 3c 18 3a aa bd
       -0.10203883 0.20527098 0.0136550665 -0.08311862
0001d0 48 2a d3 bd d8 af cb 3d d2 7e 78 be a8 3d 97 3d
       -0.10310799 0.09945649 -0.24267128 0.07384807
0001e0 30 8c d8 bc 6c b3 2a be 78 f9 63 bd e8 d6 ed bd
       -0.026434034 -0.16670007 -0.055657834 -0.11613256
0001f0 c8 96 65 bd f2 99 6d be 42 af 71 3e 2a aa 13 be
       -0.056052 -0.23203257 0.23602012 -0.14420381
000200 f4 59 1a be 24 d4 1e 3e ce 6e 55 be 5c 95 c9 3d
       -0.15073377 0.15510613 -0.2084305 0.09842941
000210 90 42 59 3d b8 ab 5e bd 3e 1b 15 3e 7a 0d 48 3e
       0.053041995 -0.054362983 0.14561173 0.19536391
000220 c6 72 64 be 88 b9 2f be f0 a4 8b bd 5a 63 34 be
       -0.22309408 -0.17160618 -0.06818569 -0.17616025
000230 f0 d4 c1 bc b0 b1 e4 bc e8 0a 3c be f0 0d 2a 3d
       -0.023661107 -0.02791676 -0.18363535 0.041517198
000240 38 80 9e 3d c0 29 84 bc e8 9a cd 3d a8 c3 54 be
       0.077392995 -0.01613319 0.10039312 -0.20777762
000250 00 6c 79 3c a4 a4 f8 3d 40 c5 54 3d a6 2e 2d be
       0.015223503 0.12140778 0.051945925 -0.16912326
000260 a0 7c 8f bc 98 27 f3 3d ba 57 56 3e 88 cf 96 3d
       -0.01751548 0.11872786 0.20931903 0.07363802
000270 7c fe 70 3e ac 59 c3 bd 50 5c 99 bd 10 1b 4b 3d
       0.23534578 -0.09538588 -0.0748831 0.049586356
000280 52 b0 25 be a4 ee 4b be 1a 13 32 3e 84 33 f5 bd
       -0.16180542 -0.19915253 0.17390099 -0.119727165
000290 70 3e 05 be 60 5b 10 3d b6 6e 02 3e 2e 70 3e be
       -0.130121 0.035243392 0.12737545 -0.1859748
0002a0 c4 5e 4e be c8 13 00 3d d2 ab 73 be 28 3c bb 3d
       -0.20153338 0.031268865 -0.23796013 0.09142333
0002b0 f8 03 07 3e 04 fd ca bd 88 fe fb bd 2a a7 44 3e
       0.13185108 -0.0991154 -0.12304407 0.19204393
0002c0 00 de 45 3b cc 36 3e be 98 78 85 3d 14 2a 8e bd
       0.0030192137 -0.18575591 0.06517142 -0.069416195
0002d0 06 74 7c 3e e4 dc d4 3d c6 54 32 be 48 a9 13 bd
       0.24653634 0.10393694 -0.17415151 -0.03605011
0002e0 50 79 37 bd 94 0d da 3d 6a 08 0f be 8c 17 e0 3d
       -0.044793427 0.10647121 -0.13968053 0.10941991
0002f0 ee f3 3b 3e 3c 21 6a 3e e0 e2 1c 3e b8 17 fc bd
       0.1835477 0.2286424 0.15320921 -0.123092115
000300 bc e5 2e 3e 60 d8 8b bd 3e a3 06 be 88 87 5c 3d
       0.17079824 -0.0682838 -0.1314821 0.05384019
000310 c0 cd 9e 3b 6c dc d4 bd e2 ea 7d 3e 70 10 35 3e
       0.0048463047 -0.10393605 0.24796632 0.17682052
000320 68 ca 21 3e 64 8d 0e be 1c f9 25 be ca 63 44 3e
       0.15799868 -0.13921124 -0.16208309 0.19178692
000330 e0 16 f6 bd be 2c 73 be 46 b5 5e be 78 f4 ad 3d
       -0.12016082 -0.23747537 -0.21748838 0.08493894
000340 ca f0 44 be b0 8e 5a bd 96 9e 55 3e e6 2c 06 3e
       -0.19232479 -0.053358734 0.20861277 0.13103065
000350 98 13 d9 3d 90 5f 55 3d 08 3e 90 bd b8 ef 1a be
       0.1059944 0.05209309 -0.070430815 -0.15130508
000360 20 96 42 3c 00 01 48 bd 18 19 19 be 02 5b 19 3e
       0.011876613 -0.04882908 -0.14950979 0.14976123
000370 50 24 4e bd e0 b4 ad 3d 04 bc 22 be 12 ac 7e be
       -0.0503276 0.08481765 -0.15892035 -0.24870327
000380 e0 d0 2c bc a4 0a a5 3d 8c 9e 6d be f6 c7 43 be
       -0.010547847 0.0805867 -0.23205012 -0.19119248
000390 30 4d 43 bd e0 67 08 be f8 82 54 3d d0 c2 87 3c
       -0.047681034 -0.13320875 0.051882714 0.016572386
0003a0 0c af b4 bd 74 cb 31 be 8e 7f 05 3e e8 f5 07 3e
       -0.0882245 -0.17362767 0.1303694 0.132774
0003b0 d8 dc 4c 3e a8 b0 d1 3d 50 b1 af bc 5c b0 e4 3d
       0.2000612 0.10238773 -0.021446854 0.111664504
0003c0 a0 0c 4e 3d cc bc 6b be ca 37 2b 3e 44 86 1e be
       0.05030501 -0.23021239 0.167205 -0.15480906
0003d0 b0 50 a3 3d 80 54 55 3e 08 5c 1a be 2c 8a 43 be
       0.07974374 0.20833015 -0.1507417 -0.19095677
0003e0 10 5e 45 be d8 fc 0f 3d 10 a7 9d bc 6c 6b e7 3d
       -0.19274163 0.03515324 -0.0192447 0.11299786
0003f0 24 fc 87 3d 10 f4 1a 3d 9a c8 69 3e e8 fc 3f be
       0.06639889 0.037830412 0.2283043 -0.1874882

weight f4 [32, 1, 4]
000000 38 d9 71 be a0 f6 98 3d 38 e4 42 be 36 23 d0 3e
       -0.23618019 0.07468915 -0.19032371 0.40651864
000010 d6 ad f7 be 30 81 f0 bd fa 68 d6 be 20 70 6e 3e
       -0.48374814 -0.117433906 -0.41876966 0.2328496
000020 94 66 92 3e cc d8 5e 3e 06 c7 cc be dc 34 e6 be
       0.28593886 0.21762389 -0.39995593 -0.44962204
000030 60 8b 68 be 82 40 fd be 68 2a 05 be 0c 3a b7 be
       -0.22709417 -0.49463278 -0.13004458 -0.35786474
000040 6e 75 b0 3e 7c 59 10 be 04 17 f2 be 78 dc 97 3e
       0.34464592 -0.14096636 -0.47283185 0.29660392
000050 00 02 58 bc 54 30 42 3e 50 a4 d1 3e dc d1 52 3e
       -0.013184071 0.18963748 0.40945673 0.20587867
000060 60 5a b9 3e ac 13 9b 3e e0 7f 8a bc 94 27 da 3e
       0.36201763 0.30288446 -0.016906679 0.4260832
000070 48 93 ee 3d 00 9c 11 bb 38 fb e8 3e e8 80 fc 3e
       0.116491854 -0.0022218227 0.45504165 0.49317098
000080 ba e2 f0 be a0 84 b9 3e 2e 47 9e 3e 6c bc 18 3e
       -0.4704798 0.36233997 0.3091368 0.14915627
000090 ae ca 95 3e 14 60 ec be 72 cd bb 3e 00 07 55 3e
       0.29256195 -0.46167052 0.3668018 0.20803452
0000a0 c0 27 9a bc 50 0b 2c 3d 86 b2 f8 be b0 d9 ad bd
       -0.018817782 0.042002976 -0.48573703 -0.08488786
0000b0 c8 78 d8 be 06 f5 82 3e 9c 72 d7 be 46 83 ba 3e
       -0.4227965 0.25577563 -0.42079628 0.3642828
0000c0 d8 5e fb 3e 34 73 15 be 42 e7 85 be 48 05 3e 3e
       0.49095798 -0.14594728 -0.26152998 0.18556702
0000d0 96 83 f0 3e e0 01 70 bd 24 2d 21 3e 0e 7d ec be
       0.46975392 -0.05859554 0.15739876 -0.4618916
0000e0 00 0a f7 3e b4 f2 f6 be ec 8a 47 3e cc 7a 23 be
       0.48249817 -0.48232043 0.19486588 -0.15964812
0000f0 88 26 d3 3d 68 73 80 be 62 10 a7 3e 38 e4 94 3e
       0.10310084 -0.25088048 0.32629687 0.29080367
000100 68 ed 03 be 74 ab 98 be 9e f1 ad be ae b8 ae be
       -0.12883532 -0.29818308 -0.33973402 -0.34125274
000110 2c 77 c1 be 3c 04 eb 3e 18 c0 11 be a0 f8 ca be
       -0.37786233 0.45901668 -0.14233434 -0.3964281
000120 58 30 dd be a8 e2 a4 bd 06 1b 9e be 94 59 3f 3e
       -0.43200946 -0.08051044 -0.30879992 0.18686515
000130 ca 08 d3 3e f0 6e 63 bd ea 8e 88 be bc 00 37 3e
       0.41217643 -0.05552572 -0.26671535 0.17871374
000140 a4 be 9b 3e 88 19 83 be c4 90 4a be 70 74 88 bd
       0.30418885 -0.25605416 -0.19781786 -0.06662834
000150 78 48 15 3e d0 11 66 bd a8 c9 d8 bd 92 5a 81 3e
       0.14578426 -0.05616933 -0.10585338 0.25264412
000160 30 bc 37 bd b6 15 e2 3e 16 53 e2 3e f8 8a f2 3e
       -0.044857204 0.4415719 0.44204015 0.4737165
000170 30 21 65 bd e0 c2 9c be ea cd 82 be 54 f8 0f be
       -0.055939853 -0.30617428 -0.25547725 -0.14059573
000180 a4 2d c2 be 94 72 bf be 7c 0f db be ac 42 c3 3e
       -0.37925446 -0.37392104 -0.4278525 0.38136804
000190 a0 bb 8b be 2c ee 90 3e 1e 06 f7 be b8 00 c2 3e
       -0.27291584 0.2830671 -0.48246855 0.37891173
0001a0 b0 66 04 bd 58 d1 7c be 50 7b 9d 3e 02 d7 fb 3e
       -0.032324493 -0.24689233 0.30758142 0.49187475
0001b0 2c 95 f3 3e 98 1d a9 be f8 3f ba bd e0 d7 88 3e
       0.47574747 -0.3303039 -0.09094232 0.267272
0001c0 a8 9c a5 bd 88 9e 8b 3e d4 d4 15 be b0 0c bb be
       -0.080865204 0.27269387 -0.14631969 -0.36533117
0001d0 66 17 98 3e cc d7 67 be a0 c8 cc 3c e4 09 c9 be
       0.29705352 -0.22640914 0.02499801 -0.39265358
0001e0 88 92 37 3e 40 3e 0a 3d 32 fe 94 3e 00 4a 11 be
       0.17926991 0.033750772 0.29100186 -0.14188385
0001f0 70 0b 2a bd d4 4a 05 3e 20 6c e9 bc b2 ab 96 be
       -0.041514814 0.13016826 -0.02849394 -0.29427868

bias f4 [32]
000000 60 4f b6 3e e8 e9 e8 3d 0c 99 e1 be 04 e9 54 be
       0.35607433 0.11372739 -0.44062078 -0.20792013
000010 38 31 8f be a4 d8 db 3e 18 57 cf 3d dc a2 4c be
       -0.27967238 0.4293872 0.10124034 -0.19984001
000020 4c ca 69 be 44 2c 5a 3e 20 e1 6c bd 08 cd 0d be
       -0.22831076 0.21305948 -0.057831883 -0.13847744
000030 8c 7e 48 be f6 f2 b6 be 70 6d 14 3d 38 db fe bd
       -0.19579524 -0.3573224 0.03623718 -0.124441564
000040 ac ff 7c 3e d8 63 0f 3e 74 9b c0 3e 68 f4 ac bd
       0.24706906 0.14002931 0.376186 -0.08445054
000050 5c 81 d2 be 80 4e b4 3b f8 48 d1 3e f6 8d d2 be
       -0.41114318 0.005502522 0.40875983 -0.41123933
000060 cc 1c 44 be 00 75 bf bc 60 36 95 be ee 6c f0 be
       -0.1915161 -0.02337122 -0.29143047 -0.46958107
000070 84 0a 41 3e 88 c6 b7 3e 92 12 d2 3e 44 b5 c1 3e
       0.18851668 0.35893655 0.41029793 0.37833607

weight f4 [33, 32]
000000 e1 50 2f 3e 9a 9c 11 be 4e 29 b2 3d 53 00 35 be
       0.17120697 -0.14219895 0.086992845 -0.17675905
000010 36 c7 9d bd 47 6e bf bd 96 e3 c4 bc f4 1a 60 bd
       -0.07704012 -0.093472056 -0.024034303 -0.054713205
000020 65 ed 0f be 4b ca 9f bd 41 38 64 3d 08 d8 ea 3c
       -0.14055403 -0.07802256 0.05571771 0.028667465
000030 b8 e6 1f 3e 28 d8 95 3d c2 70 11 be b2 62 6a 3c
       0.15615356 0.07316619 -0.1420317 0.014305757
000040 5b 63 f5 3d c1 59 e0 3d f1 99 e7 bd d5 ab f1 bd
       0.11981841 0.10954619 -0.11308659 -0.118003525
000050 43 5d 2c 3e 22 74 e5 bd 43 54 1f bd 53 a5 ed bd
       0.16832452 -0.11203791 -0.038898718 -0.11603799
000060 8c f1 7c 3d a3 70 90 3d 8b d1 8e bd 47 5c 28 be
       0.061753795 0.07052734 -0.06973561 -0.16441451
000070 e1 38 d6 bd 1c 4f bd 3c fa 6f 12 3e 84 ef 51 bd
       -0.104600675 0.023109011 0.14300528 -0.05125381
000080 5f d9 7c 3d e2 cd e2 3d c2 25 4b 3d a4 a3 f4 bd
       0.06173074 0.11074425 0.049596556 -0.119452745
000090 74 33 b3 3c fa ed e7 3d 25 b5 86 3d 18 6f 95 3d
       0.02187512 0.11324687 0.06577519 0.0729658
0000a0 59 be 34 be 62 31 ad bd f1 03 9e 3d 28 03 68 3d
       -0.17650737 -0.08456685 0.077155955 0.056643635
0000b0 29 04 10 3e 11 79 57 3d 5c 34 f0 3d 8a 45 ca bd
       0.14064087 0.052605692 0.11728737 -0.09876545
0000c0 60 a5 21 be 0c 98 e4 3d f7 4e 21 be 70 b6 c1 bd
       -0.15785742 0.11161813 -0.15752779 -0.09458625
0000d0 5a 01 eb bb ce a5 bb bd fb a9 07 be 60 08 12 3e
       -0.007171792 -0.09162484 -0.13248436 0.14261007
0000e0 91 70 b0 bd 74 2d a6 bd d4 30 7e 3d cb 93 01 bc
       -0.0861522 -0.08114138 0.062058285 -0.007908772
0000f0 64 e2 a7 3c 9a a5 1f 3e 83 17 a8 3d 6b 7f 2b bd
       0.020493694 0.15590516 0.082076095 -0.041869562
000100 eb 68 d4 bd 54 5f ca bc 25 dd 14 bd c0 b6 ba 3d
       -0.10371574 -0.02470366 -0.036343712 0.09116888
000110 e6 e0 1d bc fe 9a 09 3e a0 d7 67 bd 8a 19 47 bd
       -0.0096361395 0.13438031 -0.05660212 -0.04860834
000120 62 b5 af 3d 51 04 d9 3d 6a 4c ef bc 17 9e ab 3c
       0.08579518 0.105965264 -0.029211242 0.020949407
000130 4d 64 e3 3c 00 c1 6b 3d ea 56 10 3e 48 f8 42 bd
       0.027757788 0.057557106 0.14095655 -0.04760006
000140 56 c2 2a 3d b3 61 e8 bd 43 f8 13 be 99 88 a5 3d
       0.04168924 -0.1134676 -0.14450173 0.080826946
000150 53 2f 15 3d 59 0e e2 3d 0e 24 1f be 5b cf ab 3d
       0.036422085 0.11037893 -0.15541098 0.08389159
000160 33 d8 02 3d 9e 70 09 3e 31 f2 b8 bd 86 5a 1b 3e
       0.031944465 0.13421866 -0.09030569 0.1517125
000170 b4 84 b7 3c 68 2b 90 bd 4b 8d c5 3d d0 c8 a3 3d
       0.022402145 -0.07039529 0.0964609 0.07997286
000180 e6 66 aa 3d 68 ba ba 3d 74 d5 0f 3e 7d 6f 1a 3e
       0.083204076 0.091175854 0.1404627 0.15081592
000190 6e b2 d3 bb c7 f9 43 bd 6c 74 b6 3c 0d cc 2b bd
       -0.0064604795 -0.047845628 0.022272311 -0.041942645
0001a0 ee d4 12 be 16 4d a4 3d d2 7e ed bd d3 87 09 3e
       -0.14339039 0.080225155 -0.11596455 0.13430719
0001b0 78 c3 8b 3c 7b 36 22 3d 87 73 de 3d 93 dc 11 be
       0.01706098 0.039602738 0.10861879 -0.14244299
0001c0 41 18 80 3d 1e a0 00 be 97 bc 1d be 85 ab 52 3d
       0.06254626 -0.1256108 -0.15403973 0.051433105
0001d0 93 f1 c0 bd db c3 d9 bc fc dc aa bd 76 76 02 be
       -0.094210766 -0.026582649 -0.08342931 -0.12740502
0001e0 45 63 72 3c 7b a0 aa 3d f7 d0 e9 bd de 8f 2c be
       0.0147941755 0.083313905 -0.1141681 -0.16851756
0001f0 bb 57 ae bd 33 59 11 3e c1 21 15 bb 68 4d 46 bc
       -0.08512827 0.14194183 -0.0022755715 -0.012103416
000200 87 e3 ed 3c 3c 14 90 3c 0a 8a 09 3e 50 0c 24 3e
       0.029039158 0.017587774 0.13431564 0.16020322
000210 d6 e7 08 3d ac ee ca 3d fc 33 04 3e dd 48 b7 3d
       0.03342422 0.09908804 0.12910455 0.089494444
000220 6f d3 ad 3d c1 ac 91 3d b3 2b 86 bd 37 d6 4d bc
       0.084875934 0.07113028 -0.06551304 -0.01256328
000230 a3 d4 02 be dc 5c 13 be 58 b3 c5 bb 4d e0 58 3d
       -0.12776427 -0.14390892 -0.0060333423 0.052948285
000240 e6 e8 a1 3d a5 be 61 bd 0e 00 48 bd 6b d2 6e 3d
       0.0790575 -0.055113453 -0.048828177 0.05830614
000250 06 4d c5 bd 66 9f c1 3d 1d 46 31 bc b3 d7 0e be
       -0.09633832 0.09454231 -0.010819939 -0.1394947
000260 dd 68 19 3d 3f b0 ee 3d 14 21 03 3e a1 c1 d8 bd
       0.03745352 0.1165471 0.12805587 -0.10583807
000270 9a 74 10 be ee 38 af bd 48 44 17 bd 19 c1 a6 bd
       -0.1410698 -0.0855578 -0.036930352 -0.08142299
000280 9e 8a 95 3d 0a 5d 05 3e 73 24 22 bd 13 79 45 bd
       0.0730183 0.13023773 -0.039585542 -0.04821117
000290 0e da 39 bd 3a 4e 28 bc ac ce 0d 3e 30 7b cd bd
       -0.04537397 -0.010272557 0.1384837 -0.10033262
0002a0 8f 8a b3 3c a4 37 db bd 96 b4 09 3e dd ab 69 3d
       0.021916656 -0.10703972 0.13447794 0.057048667
0002b0 f1 d0 97 3d a3 b5 0c be 53 a1 04 be fe 61 3b 3d
       0.07412899 -0.13741164 -0.12952165 0.04574775
0002c0 26 38 bb 3d b1 cc cf 3d 64 3f b8 3d bb 4d b6 3d
       0.09141569 0.10146464 0.08996466 0.08901545
0002d0 c5 2a 00 bd 63 82 50 bd ad d7 01 bc 45 36 0b be
       -0.03129079 -0.050905596 -0.007924956 -0.13594921
0002e0 b0 37 34 bd 5d db 81 3d 82 40 f1 3d a9 63 d4 3d
       -0.04399842 0.06340668 0.11779882 0.10370571
0002f0 37 94 e8 3d 66 71 fd bd ab 20 1a 3e cc 99 20 bd
       0.11356395 -0.12375145 0.15051524 -0.039209172
000300 3b 78 09 be ec 5e de bd 89 f2 ab bd a1 80 1a be
       -0.1342477 -0.10857949 -0.08395869 -0.1508813
000310 e5 d0 89 3d d4 34 e0 3c 50 f6 be bd f6 02 b9 bd
       0.067292966 0.02736894 -0.09324324 -0.09033768
000320 66 b9 c9 bd ba 7a 34 3e 56 da 12 be 9e c9 28 3e
       -0.09849815 0.17624941 -0.14341101 0.16483161
000330 58 88 4d bc a4 e7 1a be 66 13 53 3d ad bc bd bd
       -0.012544714 -0.15127426 0.05153217 -0.09264503
000340 26 49 81 bd 32 e8 8d 3d bd ca 79 3d a2 ff d0 3c
       -0.0631278 0.06929053 0.060984362 0.02551252
000350 86 84 6a 3d ad 88 c9 3c 34 33 34 3e b3 5a 97 bd
       0.05725529 0.024601305 0.17597657 -0.073903464
000360 b8 89 48 bd fd cd af bd 6d d2 3a bd d2 4c 9e bd
       -0.048959464 -0.08584211 -0.045610834 -0.07729496
000370 ff 75 fb 3d 21 d9 82 3d ff aa 1e 3d fb 81 8a 3d
       0.12278365 0.0638907 0.038737293 0.06763073
000380 68 95 00 3e 12 a9 9f 3b 93 98 21 3a c9 85 83 bd
       0.12556994 0.0048724497 0.0006164398 -0.06422002
000390 9d 9e 15 3e fe 80 c8 bd 1b 3d c2 bd a5 a9 28 be
       0.14611287 -0.09790228 -0.09484311 -0.16470964
0003a0 88 93 df 3d 25 d9 c4 bd 87 b6 34 bd ae ff 1d 3d
       0.10916811 -0.096117295 -0.044119384 0.038573913
0003b0 cf c0 02 be 90 d9 cd 3d 39 d3 f5 3d 33 ba 0d be
       -0.12768863 0.100512624 0.12003178 -0.1384056
0003c0 f2 f0 0b bd 2d e6 25 3e 78 f2 01 be 0d b6 07 3e
       -0.03416533 0.16201086 -0.1269015 0.1325304
0003d0 be 2e 49 3d 65 71 15 be d3 51 f0 3a e9 6c 99 3c
       0.049116842 -0.14594038 0.0018334932 0.01872869
0003e0 56 03 f0 bc 57 4e 4d 3d 49 1d a9 3d b5 9d 14 be
       -0.029298466 0.05012354 0.08257539 -0.14513285
0003f0 bb e7 20 bd b8 e6 20 be 32 1d 26 be 95 c4 13 be
       -0.039283495 -0.15713012 -0.16222075 -0.14430459

weight f4 [32, 1]
000000 f8 7b c9 3e f0 ce e8 bd 74 2a 5b bf c4 49 59 bf
       0.39352393 -0.11367595 -0.85611653 -0.8487818
000010 ac 27 0d bf d0 18 d7 bd 38 f3 93 3e a0 b4 72 3e
       -0.5513866 -0.105027795 0.288965 0.23701715
000020 3c 01 c3 3e c0 0c 5d be 44 05 75 bf 32 bd 60 bf
       0.3808688 -0.21586895 -0.9571116 -0.8778869
000030 2c 08 87 3e a8 4d 6c be 80 37 e0 3d 00 14 80 bd
       0.26373422 -0.23076499 0.10948086 -0.06253815
000040 6c 32 49 3f 84 e0 da 3e 50 0a b3 3e 58 e2 06 be
       0.7859256 0.42749417 0.34968805 -0.13172281
000050 54 b2 2a bf d0 21 46 be 64 c0 a0 3e d6 7d 60 3f
       -0.6667836 -0.19348836 0.31396782 0.8769201
000060 40 93 78 3e 0e a7 08 bf 08 b6 b9 be c8 18 6b be
       0.24274921 -0.53379905 -0.3627169 -0.22958672
000070 48 a5 62 bf 34 f0 69 3f 1c 90 ac be 20 d9 6a 3f
       -0.8853345 0.91382146 -0.33703697 0.91737556

bias f4 [32]
000000 f6 97 c8 c0 c6 b1 46 c0 3b 77 cc c0 38 fe da c0
       -6.26855 -3.1046004 -6.3895545 -6.8435326
000010 68 ce 9d c0 9d c0 58 c0 d1 39 33 c0 cd 2d 80 c0
       -4.931446 -3.3867562 -2.8004038 -4.005591
000020 7b 51 28 c0 88 72 86 c0 4b c1 da c0 24 a8 9a c0
       -2.6299732 -4.201481 -6.8360953 -4.833025
000030 3e d4 d0 c0 e6 0a b7 c0 e0 7a a7 c0 a9 d3 67 c0
       -6.5259085 -5.7200804 -5.2337494 -3.6222937
000040 18 38 8e c0 b8 64 8b c0 fc 32 c4 c0 21 22 ac c0
       -4.4443474 -4.356045 -6.1312237 -5.379166
000050 54 64 bd c0 de 34 4d c0 27 0c d6 c0 42 60 1d c0
       -5.918497 -3.2063518 -6.6889834 -2.459
000060 21 54 d9 c0 11 26 85 c0 2e d5 9e c0 ae c3 a8 c0
       -6.7915196 -4.160897 -4.963523 -5.2738867
000070 ee 23 b4 c0 bd f0 ce c0 ae bf 49 c0 24 b1 c7 c0
       -5.629386 -6.466887 -3.1523242 -6.2403736

weight f4 [16, 32]
000000 c9 7c 02 bd 0d 04 25 3e 60 d5 00 be e0 98 cd bd
       -0.031857286 0.16114827 -0.12581396 -0.10038924
000010 79 82 20 be ba 54 55 bd 57 2a d2 3a 48 80 30 be
       -0.15674771 -0.052082755 0.0016034347 -0.17236435
000020 08 3f dd 3c 3e 76 63 bb 33 7e 04 be ac cd bf bd
       0.027007595 -0.003470793 -0.12938766 -0.09365401
000030 54 31 ea 3c bf f9 c3 bd ac 0d a3 bd 8c 08 d5 bd
       0.028587975 -0.0956912 -0.07961592 -0.10402021
000040 36 15 35 3d e9 9c 2e be 84 1d 10 bd 1d 91 13 3d
       0.04420968 -0.17052044 -0.0351844 0.036027063
000050 e9 ee 94 3d c4 5d 16 3d 7e 58 1d 3d be b7 8a bc
       0.07272131 0.036710516 0.03841447 -0.016933318
000060 bf 39 10 3e 00 42 96 3d 2c 9d 33 3e 9f 97 fe bd
       0.14084528 0.07336807 0.17540425 -0.12431263
000070 08 cd c5 bd 42 6e 2f 3e 69 bc 76 bd 80 8a fd bd
       -0.09658247 0.17131904 -0.060238276 -0.123799324
000080 0b 06 0b be 03 d1 f9 bd bf 7f 17 3c e1 52 fc 3d
       -0.13576524 -0.12198069 0.009246766 0.123204954
000090 02 3c dc bc 90 fb b3 3d b0 60 95 3c fb de 0b 3d
       -0.026884083 0.08788216 0.01823458 0.034148198
0000a0 e6 23 d2 3d 8a b8 9f 3c b5 4f c1 3c 3c 9c 89 3b
       0.10260753 0.019497175 0.023597578 0.004199533
0000b0 45 29 69 3d 42 cd 30 be df 14 df bd f4 e0 ed 3d
       0.056924123 -0.172658 -0.10892653 0.11615172
0000c0 5c 25 f1 bd 7f 05 8c bd fc 53 6d bd 0a 65 f8 bd
       -0.11774704 -0.06836986 -0.057941422 -0.12128647
0000d0 99 7c 2e bd b1 f3 ba bd e3 52 db 3c 4d e0 33 be
       -0.042599294 -0.09128512 0.026772922 -0.17566033
0000e0 2d e3 a1 3b 35 7c 0e be e6 0b 24 3e c8 5b fa bd
       0.0049404115 -0.13914569 0.16020164 -0.12224537
0000f0 1c bd e7 3c c2 5b a6 3c 7e 36 33 be 93 ce 07 be
       0.028288417 0.020307425 -0.17501256 -0.13262396
000100 65 ba 1f be 16 f0 ac bd 00 59 d4 bd 13 b0 c5 bd
       -0.15598448 -0.0844423 -0.10368538 -0.09652724
000110 15 32 24 be c4 82 b6 3d 6e 52 0f be 5f 30 f8 bb
       -0.1603473 0.0891166 -0.13996288 -0.0075741257
000120 f2 a2 a2 3d f8 49 32 be 93 c9 9b 3d 82 4f b0 3d
       0.079412356 -0.1741103 0.076068066 0.08608915
000130 01 09 f0 3d cf 9d 88 bc 92 99 28 be 46 ec f2 3b
       0.11720467 -0.016676812 -0.16464832 0.00741342
000140 4b e6 cf bc 28 8e a5 3d db 5e 21 3c 1a 29 a6 3d
       -0.025378367 0.08083755 0.009849275 0.08113308
000150 bc 11 11 bd ab 6a 1b bd 13 99 bc bc 30 41 2c 3e
       -0.035417303 -0.037943523 -0.02302221 0.16821742
000160 c3 3d 70 bc ba e8 a8 3c ae 60 ef bd c5 a4 c1 bd
       -0.014663163 0.020618785 -0.11688362 -0.094552554
000170 0b 56 29 be 55 12 3b 3d e7 7e 9c 3d 5a 75 64 3d
       -0.16536729 0.04567178 0.07641392 0.055775978
000180 dc 96 28 3d 2c c1 57 3d f5 21 13 be 50 5d bc bd
       0.041159496 0.052674457 -0.14368422 -0.091974854
000190 d9 c2 81 bd 35 53 2a 3d cf 74 3d 3b 19 8c c5 3b
       -0.06335992 0.04158326 0.0028908735 0.006028664
0001a0 57 40 a3 3d 67 f5 58 3d 3b f7 1e 3c 70 2c a6 3d
       0.07971256 0.05296841 0.009702499 0.081139445
0001b0 49 e8 35 bb 87 a9 18 3e c2 81 e9 bd ee 07 be 3c
       -0.002775686 0.1490842 -0.114017025 0.02319714
0001c0 c4 f9 2c be 68 e0 59 3c 5b 6a 24 be 5b 19 85 bc
       -0.16892153 0.0132981315 -0.16056196 -0.016247442
0001d0 23 6f 8d 3c 04 6f 35 3a c0 bf ed bd 6a d8 12 3e
       0.017264908 0.00069211447 -0.11608839 0.14340368
0001e0 ec de a9 bd 87 00 98 3d 3c 65 d5 bd db fa 40 3d
       -0.08294472 0.074219756 -0.104196995 0.047114234
0001f0 a7 bc 61 3b 02 84 ce 3d 01 9c 6c bc 58 82 7e 3d
       0.003444472 0.10083772 -0.014441491 0.062136024
000200 44 0e 05 3e 81 61 33 3e 40 14 9e bb 58 3d f8 3d
       0.12993723 0.17517664 -0.0048241913 0.121210754
000210 1c db e4 3d ed 53 11 3e 66 ea 32 3d 47 c5 0a be
       0.11174604 0.14192171 0.04368057 -0.13551818
000220 ff bd bc bd e3 92 85 3d 2c 1b 5c 3d 8a c9 ed 3d
       -0.092159264 0.06522157 0.05373685 0.11610706
000230 2a e1 dc bc 77 42 a5 bc 71 69 14 be 1a c9 e0 3d
       -0.026962835 -0.020173294 -0.14493348 0.10975857
000240 a0 fb de bc 40 29 f5 3d 8d c2 ff bd 1c 28 c9 3c
       -0.027219594 0.119707584 -0.124882795 0.024555258
000250 1f 57 b0 3d a2 76 21 3b d0 c2 06 bd fd c8 23 be
       0.08610367 0.002463736 -0.03290063 -0.1599464
000260 9a 30 0b be 54 20 ca bd 16 f1 81 bc 25 11 e6 bd
       -0.13592759 -0.09869447 -0.015862029 -0.11233739
000270 5d f5 6c 3d aa ab d8 bc e2 cc 08 3e 61 aa af bd
       0.057851184 -0.026449043 0.13359407 -0.08577419
000280 a0 8a 18 be a4 f2 b6 bc 46 91 ab 3c 1a 94 73 bd
       -0.14896631 -0.022332497 0.020943295 -0.059467413
000290 a9 31 94 3d f5 42 5a 3d 3a 47 9c bd a0 25 eb bd
       0.072360344 0.05328651 -0.07630773 -0.11481786
0002a0 1f 4b 15 3e 26 79 19 bd 42 1b 99 3d 84 22 1e be
       0.14579438 -0.03746905 0.07475902 -0.15442854
0002b0 45 ef 41 bd ac 79 20 3e 35 eb 27 bd b3 51 ba 3d
       -0.047347326 0.15671414 -0.040995795 0.09097614
0002c0 a3 4f 98 bb d9 6e 29 3e 19 84 e5 bd f5 a1 17 3e
       -0.0046481653 0.16546191 -0.11206836 0.14807875
0002d0 39 57 22 be 81 fd 9f 3d fc 1f 22 bc e3 d2 2e be
       -0.15853585 0.07812024 -0.009895321 -0.17072634
0002e0 40 11 5c bd ad ff a6 bc f9 8e f3 3d d8 e5 11 be
       -0.05372739 -0.020385588 0.11892504 -0.14247835
0002f0 bd 94 bf bd 69 45 28 3e 73 74 b3 bd 22 5c cc 3d
       -0.093545415 0.16432728 -0.08762445 0.099785104
000300 4f e0 2a 3e bb 56 78 bc 80 2e 59 3d 61 df 9c bd
       0.1668713 -0.015157397 0.05302286 -0.07659794
000310 b6 1e d5 bd 52 d5 75 bd 43 4b 1b 3e 66 ac ad 3b
       -0.10406248 -0.06001789 0.15165429 0.0053000925
000320 80 c3 16 be b9 0b 9c bd 74 6d 38 3d e8 58 21 be
       -0.14723015 -0.076194234 0.045026258 -0.15756571
000330 90 93 03 3c 79 61 ac bd 24 e9 60 bc fe 6f d8 bd
       0.008030787 -0.08417029 -0.01372746 -0.10568236
000340 ab e2 f3 3d ce 76 89 3d c0 3b 34 be 03 05 68 3d
       0.11908468 0.06712113 -0.17600918 0.056645405
000350 db 1b ed bd 51 8a 59 3d 3c 18 1e 3e cb f9 b1 3d
       -0.11577579 0.053110424 0.15438932 0.08690222
000360 ea 6d 17 3e fb 63 a6 3d 0a f7 b0 bd b8 d1 de 3d
       0.14788023 0.081245385 -0.08640869 0.108798444
000370 b0 51 3a 3d ed c5 eb 3c 87 50 0d 3e cb 7a 74 3d
       0.04548806 0.028780902 0.1380025 0.059687417
000380 0f 25 f8 3c 9b 70 32 3e 9d e2 55 3d 28 ea 21 be
       0.030291108 0.17425768 0.05221807 -0.1581198
000390 0f fb 80 3a 6a 43 be 3d 7c c5 82 3c 1b 74 40 bc
       0.0009840446 0.09290202 0.015963309 -0.011746432
0003a0 b7 c0 34 bc 06 c1 c9 3b 7e 21 ae 3d 72 95 99 bd
       -0.011032275 0.0061570434 0.08502482 -0.074992076
0003b0 b7 0f c9 39 65 9d bc 3d a6 8b f7 3d 7e 45 17 be
       0.00038349416 0.09209708 0.12087183 -0.14772603
0003c0 94 7d 1e 3e 45 82 13 be 4d d3 89 3c 68 8b 4b bb
       0.15477592 -0.14405163 0.016824389 -0.0031058434
0003d0 fa 84 be bd cf 17 85 bd 52 a8 4d bd ce d0 17 be
       -0.09302707 -0.06498682 -0.05020935 -0.14825746
0003e0 ee 4f 07 3e 54 30 f4 bd d3 ea 1c bc 89 e8 85 b9
       0.13214085 -0.1192328 -0.009577471 -0.0002554099
0003f0 97 34 dd 3d 2e d6 d6 bd 3e d2 44 3d f1 3b 1d 3e
       0.10801046 -0.1049007 0.048052065 0.15354897
